BZR+COX2best_model.pth (torch, 314683 bytes, 72 tensors)

encoder.convs.0.nn.0.weight f4 [32, 1]
000000 ea 29 c0 be 03 cd c0 3e ab 82 b4 3c 12 8c 40 3e
       -0.37531978 0.37656412 0.022034964 0.18803433
000010 1e fc 37 3e ce 1f 3d bd 89 5e 93 bd 23 88 5b be
       0.17967269 -0.04617291 -0.071957655 -0.21438651
000020 bf 7c 38 3e fa 6a d4 bd 14 0d b7 be 60 93 82 3e
       0.18016337 -0.10371967 -0.35752165 0.25503063
000030 f3 20 01 3e 91 7c 35 3e ca 3d 99 3e ba 63 9e be
       0.12610225 0.177233 0.29929954 -0.3093546
000040 fb cf fa bd 6f ef 39 be b1 4b d0 be 19 13 cf be
       -0.122467004 -0.18157743 -0.40682748 -0.40444258
000050 71 e9 e3 bc 42 64 8e be b3 a8 a9 3d 59 1c 7e be
       -0.027821274 -0.27810866 0.0828413 -0.24815501
000060 7b b6 bf be 7d 8c 67 3e 75 57 bb 3d aa eb f9 3d
       -0.3744391 0.22612186 0.091475405 0.122031525
000070 f4 45 bc be 93 0c 48 bc 3a 19 96 be 66 d6 ab 3e
       -0.3677212 -0.012210029 -0.2931612 0.3356201

encoder.convs.0.nn.0.bias f4 [32]
000000 00 00 00 00 36 45 6e bc 83 29 16 bd 22 d8 87 3d
       0.0 -0.014542868 -0.036660682 0.06633021
000010 a3 26 6f bd 00 00 00 00 00 00 00 00 00 00 00 00
       -0.058386456 0.0 0.0 0.0
000020 2a f5 8c bd 00 00 00 00 00 00 00 00 d5 da a5 3d
       -0.06882699 0.0 0.0 0.080983795
000030 38 42 d3 3d 37 0f f7 bc f7 58 4b 3c 00 00 00 00
       0.103153646 -0.030158622 0.012411348 0.0
000040 00 00 00 00 00 00 00 00 00 00 00 00 00 00 00 00
       0.0 0.0 0.0 0.0
000050 1e 8b ef bb 00 00 00 00 fe 39 1a 3d 00 00 00 00
       -0.0073102852 0.0 0.037652962 0.0
000060 00 00 00 00 3d 27 10 be 81 2a 79 3b c0 b8 b8 bc
       0.0 -0.14077468 0.003801972 -0.022549033
000070 00 00 00 00 dc 95 76 bd 00 00 00 00 31 19 fe 3b
       0.0 -0.06020151 0.0 0.007754468

encoder.convs.0.nn.2.weight f4 [32, 32]
000000 73 48 09 be 70 09 e6 bd d0 e7 4a be 48 37 91 be
       -0.13406543 -0.11232269 -0.19814992 -0.2836249
000010 e3 7e 00 be c8 e7 5c be 79 f8 5d be d9 aa 4c 3e
       -0.12548403 -0.21572793 -0.21676816 0.19987048
000020 38 fa 9d 3d f4 46 8f 3e a7 56 8c be 82 d3 62 be
       0.07713741 0.2798382 -0.2740986 -0.22150996
000030 f6 37 eb 3d 2b 84 98 be 43 7d 84 3d 3d 93 fa bb
       0.11485283 -0.29788336 0.06469204 -0.0076469467
000040 47 83 ad 3d 01 05 f5 3d 77 5d 5f 3e 0f a7 3c bc
       0.08472305 0.11963845 0.21812998 -0.011514439
000050 50 bf f1 bd 09 27 91 be 91 3c 4a be 96 19 27 3c
       -0.11804068 -0.28350094 -0.19749667 0.010198971
000060 c4 5c 5f 3e 5f f6 5f 3e eb af 85 bd e4 77 78 be
       0.21812731 0.21871327 -0.06527694 -0.24264485
000070 e6 9a 8f be 6e e8 15 bd 4c 42 39 be c3 82 0a 3e
       -0.28047866 -0.036598615 -0.18091697 0.13526444
000080 3e 8a 81 be c1 e8 b3 3d 4b b5 fd bb e9 f4 f9 3d
       -0.25300783 0.08784629 -0.007742559 0.12204916
000090 d3 ce ee 3c 68 14 0b 3d da 8f 33 3e 1e e9 7b be
       0.029151356 0.033955008 0.17535344 -0.24600646
0000a0 9c 26 c9 3d ea 9f 27 3e a6 bc c2 3d 34 19 68 bb
       0.09821817 0.16369596 0.09508638 -0.0035415413
0000b0 e0 80 93 3e 42 f3 71 3e 7c e9 f8 3d 73 f5 1c 3e
       0.2880926 0.23627952 0.121539086 0.15328006
0000c0 c4 58 79 3e 35 ed 2b be 38 a0 0b 3e 13 e9 12 3e
       0.24350268 -0.16789706 0.13635337 0.14346723
0000d0 92 0d 9c 3d d2 e1 8d 3e 81 a3 46 3e 35 dd 97 be
       0.07619776 0.2771135 0.1939831 -0.29660955
0000e0 8e e6 d3 bd 2d 32 1a be bd f0 4c 3d 5e cb 4c 3d
       -0.10346709 -0.15058203 0.050034273 0.049998634
0000f0 fc 56 12 3e 23 8b 31 be 4f 1a cf 3d 5a bc 09 3e
       0.14290994 -0.17338233 0.1011244 0.13450757
000100 44 de 48 be d5 dd 8e be 89 93 19 bb f2 e4 06 3d
       -0.19616038 -0.2790362 -0.0023433885 0.032933183
000110 ac 79 16 bd 5b 29 42 bc 28 ef 08 3e 74 be 22 3e
       -0.03673713 -0.01185068 0.13372481 0.15892965
000120 44 cc e3 3d c5 06 84 3d 9d 42 5a be d1 bc 68 bd
       0.11122945 0.06446604 -0.21314473 -0.056820694
000130 80 59 23 bd b3 2f 80 bd 8b a5 73 be 21 8b d6 3d
       -0.039880276 -0.06259098 -0.23793618 0.104757555
000140 f5 99 f8 bd 7b 44 da 3d cb 03 87 be 1e c2 05 be
       -0.1213874 0.10657593 -0.2637008 -0.13062331
000150 42 9f b5 bd 78 fb 35 3e 17 9e 16 3e fe e3 99 be
       -0.08868267 0.17771709 0.14708744 -0.30056757
000160 38 37 14 be 87 41 e9 bd d1 29 15 be dd 91 35 3d
       -0.1447419 -0.113894515 -0.14566733 0.04432856
000170 6b 54 bb bd 94 c7 65 3c 21 d8 5f 3e bf bd 97 3e
       -0.09146961 0.014024634 0.2185979 0.29636952
000180 99 59 42 3e da a9 37 be b5 3a 93 3e ee 58 98 be
       0.18979491 -0.17935887 0.28755727 -0.29755348
000190 35 e2 8d 3e e4 9f b5 bd 24 6f 3b 3e 35 0d 96 3b
       0.27711645 -0.08868387 0.18304116 0.004579211
0001a0 8d 9b 2b 3e b1 1d 43 bd 81 00 3d 3e ea b6 66 be
       0.16758557 -0.047635738 0.18457223 -0.22530714
0001b0 1e 99 1c bc c0 1e 0d be 93 3a a5 3d 33 d1 20 3e
       -0.00955799 -0.13781261 0.08067813 0.15704803
0001c0 a1 ef f2 3b 6a 2d 9a be d7 f7 2b bd 0e fd cb 3d
       0.00741382 -0.30112773 -0.041984405 0.09960376
0001d0 11 c8 14 3e 14 3c 9c 3e 4b 90 04 be f5 8e d6 3d
       0.14529444 0.30514586 -0.12945668 0.10476486
0001e0 b6 29 7e be 7a 85 0d 3e b8 2a bd bd 82 bf 28 3e
       -0.24820599 0.13820449 -0.092366636 0.16479304
0001f0 1c b3 2d 3e f1 f2 86 be b7 21 6e bd 4a e0 56 be
       0.16962856 -0.26357225 -0.05813762 -0.20983997
000200 07 76 8a 3e ca dd ea bc af ea 78 be 33 c0 f3 bd
       0.27043173 -0.02867021 -0.24308275 -0.119018935
000210 77 1d 31 3e 6f 3a 8a be 94 4b 80 3e f5 cf 99 3e
       0.17296396 -0.26997706 0.25057662 0.3004147
000220 80 7f 97 bd 01 1f f6 3d d3 8a 0e 3e 75 88 9b bd
       -0.073973656 0.12017632 0.13920145 -0.075943865
000230 42 ee 0e 3e 07 c5 05 3e 76 6a 30 3e 11 7c 61 bb
       0.13958076 0.13063441 0.17228112 -0.0034406225
000240 14 69 0e be 46 88 85 be 6f 42 49 be 54 fb 6c be
       -0.13907272 -0.2608053 -0.19654249 -0.23142749
000250 df b7 6b 3e 64 43 99 3d e6 91 5a be 89 8f 17 3d
       0.2301936 0.07483557 -0.21344718 0.03700212
000260 da ba ad 3d 78 21 d5 bc 71 6c b6 3b c8 1b 4a 3e
       0.08482905 -0.026016936 0.0055671264 0.1973716
000270 77 d8 29 3e 95 0e 2a be 57 29 eb 3d 6b ef 6e be
       0.16586481 -0.16607125 0.11482494 -0.23333518
000280 7e 9b 82 3e a5 a4 02 be 1b db 4a 3e 2a 48 70 3d
       0.25509256 -0.1275812 0.19810145 0.05866257
000290 55 52 34 3e 6e 17 6f be fe f3 48 be 08 6a b2 bd
       0.17609532 -0.23348781 -0.19624326 -0.0871163
0002a0 15 06 2d be dc 2e 4d ba 15 63 4d be 33 f1 52 be
       -0.16896851 -0.0007827112 -0.20057328 -0.20599823
0002b0 0c a7 e2 3d 2f 7e 2d be fe ac 51 bd c1 00 6a be
       0.11067018 -0.16942666 -0.05119037 -0.2285185
0002c0 ed 72 98 be 55 b6 6e 3e c4 5f 50 bd 54 c8 0b 3e
       -0.2977518 0.23311742 -0.05087258 0.13650638
0002d0 6e 7b b2 3b fa 50 5a 3e 07 e2 03 bd cd 2b 69 3e
       0.005446843 0.21319953 -0.03219798 0.22770615
0002e0 f7 2b a8 bd c3 f1 b6 bc d7 d9 63 3d c0 c6 2c be
       -0.08211511 -0.022332078 0.05562767 -0.16872692
0002f0 b0 d3 5a 3e 99 b4 e6 bd bd 8d 7f bd 6f 2e 92 bd
       0.21369815 -0.11264915 -0.06239103 -0.07137763
000300 19 13 82 be 24 8f 49 3d 40 48 1e be 3a e7 42 be
       -0.25405195 0.049208775 -0.15457249 -0.19033518
000310 87 7c b2 3d 8c 33 e2 bd 06 05 a6 bd fd e2 28 bd
       0.08715158 -0.11044988 -0.08106427 -0.041232098
000320 82 27 c7 3e 86 97 8e bd 15 2f 80 3e 4a cb 47 3e
       0.3889733 -0.069624946 0.2503592 0.19511142
000330 15 18 8c 3e a4 54 a6 3e 40 a2 89 3e b9 2c 46 be
       0.27362123 0.3248645 0.268816 -0.19352998
000340 65 c3 ef bd 10 7a 99 be da c4 36 bd 12 54 c8 bd
       -0.117071904 -0.2997594 -0.044621326 -0.0978166
000350 98 26 4e 3e 8a 4f 8c be f6 5e da bd bf 20 98 3d
       0.2013191 -0.27404433 -0.106626436 0.07428121
000360 33 ad 2e 3e 83 3a 90 3e 98 b4 02 3e 1a d9 99 bc
       0.17058258 0.2816964 0.12764204 -0.01878028
000370 78 55 83 be 5f 33 9b bc a3 bb 32 3e 48 c0 93 3e
       -0.25651145 -0.018945394 0.1745439 0.28857636
000380 0f ea ab 3c 07 29 8d be 81 f5 8f 3e 37 12 6c be
       0.020985631 -0.27570364 0.28116992 -0.23053823
000390 63 03 57 3e 1b 4d d2 3c c3 c5 9a 3e 84 3a ee 3d
       0.20997386 0.025671532 0.30229005 0.11632255
0003a0 86 05 82 be 23 01 0f be 86 59 8f 3e 2e 4e 89 bb
       -0.2539484 -0.13965277 0.27997988 -0.004190228
0003b0 79 97 4e 3e 2e 1f 94 3e 67 73 6f 3c 03 8c 55 3e
       0.2017497 0.28930038 0.014614916 0.20854191
0003c0 97 4e 6b be 4a f9 22 be a9 14 5c 3e d6 2c 92 be
       -0.22979198 -0.15915409 0.21492256 -0.28549832
0003d0 08 64 9b 3e 97 f7 8a 3e 56 bd 8f be c3 16 5a bc
       0.30349755 0.2714202 -0.2807414 -0.013311091
0003e0 f1 39 9d 3c 09 05 62 be b7 05 1a be dd d7 47 3e
       0.019192668 -0.22072233 -0.15041243 0.19515939
0003f0 5f 6f 3c 3d 62 23 55 be 37 49 97 3e 20 fd 3b 3e
       0.04600465 -0.20814279 0.29548046 0.18358278

encoder.convs.0.nn.2.bias f4 [32]
000000 3b 2f 75 bd 5c 51 b5 3d 00 00 00 00 00 00 00 00
       -0.059859496 0.08853409 0.0 0.0
000010 00 00 00 00 63 51 75 bd 26 06 07 3d 00 00 00 00
       0.0 -0.05989207 0.032964848 0.0
000020 00 00 00 00 17 57 75 3d 39 98 86 bd 7a 40 50 3d
       0.0 0.05989751 -0.06572003 0.05084274
000030 a7 5c fb 3d 09 db 80 bd e1 18 af 3d 00 00 00 00
       0.122735314 -0.06291778 0.08549667 0.0
000040 00 00 00 00 00 00 00 00 74 af 11 bd 16 10 75 3d
       0.0 0.0 -0.035567716 0.059829794
000050 cc 01 61 bd 00 00 00 00 00 00 00 00 4e ea 50 bd
       -0.054933354 0.0 0.0 -0.0510047
000060 06 76 52 3d 19 78 a0 bc 2f 5b ae bd 15 40 e6 bd
       0.051382087 -0.019588517 -0.08513486 -0.112426914
000070 36 c0 1c 3d 00 00 00 00 27 83 b2 bd 83 03 ce 3d
       0.038269244 0.0 -0.087164216 0.100592636

encoder.convs.1.nn.0.weight f4 [32, 32]
000000 04 f9 e0 bd bd 9b 98 be 12 90 3b be 5e 68 f6 3d
       -0.10984996 -0.2980632 -0.18316677 0.12031625
000010 74 21 f6 bc 85 17 9d 3d f8 7f 87 3e 19 05 64 be
       -0.030045249 0.076705016 0.2646482 -0.2226757
000020 e9 c9 37 be ed b7 3a 3e ec f5 a8 3d e5 bc 01 3e
       -0.17948116 0.18234225 0.08250031 0.12669714
000030 a9 8a 77 be 7a 7f f2 bd 26 26 da 3d 4f e1 16 be
       -0.24173988 -0.118407205 0.106518075 -0.14734386
000040 92 ef da bd f1 d8 1f bd 14 b5 3f be 9b 76 0d be
       -0.10690226 -0.03902525 -0.1872142 -0.13814776
000050 25 66 69 be bf a7 99 3e 34 e1 2f 3d b9 1e 83 bd
       -0.22792871 0.30010793 0.04293938 -0.06402344
000060 7b cc 0b 3e 0a 99 45 3e 9d fc ca 3d 88 64 ca bd
       0.13652222 0.19296661 0.099114634 -0.09882456
000070 5d 3b a5 bd 7d 2d 70 3d 05 e7 6f be 01 e9 85 3d
       -0.08067963 0.05863713 -0.2342797 0.065385826
000080 55 f1 5d be 6b cd f6 3d 3f 22 9c be 0d 87 44 bd
       -0.21674092 0.12050899 -0.30494878 -0.047980357
000090 d2 20 14 be 71 34 15 3e f9 aa 5f be 0e 7d cb 3e
       -0.14465645 0.14570786 -0.21842565 0.39743847
0000a0 52 73 64 be d9 ae a7 be 34 c7 4f 3e da a3 5d be
       -0.22309616 -0.32750586 0.20290834 -0.21644536
0000b0 87 8a 40 3e 60 7a 4b 3e 3a 36 3b be 9f ee 31 be
       0.18802844 0.19870901 -0.18282405 -0.17376183
0000c0 a6 70 94 be dd 4f 14 be 13 60 14 3e b6 b1 8b 3e
       -0.28992194 -0.1448359 0.14489774 0.2728402
0000d0 31 e7 25 be 21 36 b7 be 19 56 63 be 10 22 b4 3e
       -0.16201474 -0.35783485 -0.22200812 0.35182238
0000e0 f2 c8 92 be b2 59 62 be 4e a9 03 3e 09 e8 03 be
       -0.28668934 -0.22104529 0.12857553 -0.12881483
0000f0 9a 79 58 be 59 eb cc be 6a c7 12 be 39 67 ef 3c
       -0.21140137 -0.40023306 -0.14333883 0.029224025
000100 f7 88 c6 3c c4 6d 28 3e e8 6d 61 bd 54 a1 0c 3d
       0.024235232 0.16448122 -0.055036455 0.034333542
000110 d8 ce ac bc cf fa 13 be 91 e5 e9 3a 2f 1b 81 3c
       -0.021094725 -0.14451145 0.0017844905 0.015760032
000120 3e 18 96 be f7 88 4d 3e d4 80 e0 3d e0 f9 52 bd
       -0.2931537 0.20071779 0.10962072 -0.05150783
000130 cc ae e9 bc f1 c7 00 3e 5c d9 79 3e d7 aa d7 3c
       -0.028525732 0.12576272 0.24399322 0.02632658
000140 d4 9f b8 3d 9f 10 a0 3d 29 04 90 bc f5 99 23 3d
       0.0901486 0.0781567 -0.017580109 0.039941747
000150 b1 8b 37 be a9 68 e2 3d da af f4 3d e8 c2 17 be
       -0.17924382 0.110551186 0.119476035 -0.14820445
000160 eb d1 82 3e fa 95 81 3e 73 ee 14 3e 94 f0 75 bd
       0.2555078 0.25309736 0.14544086 -0.060043886
000170 41 87 85 3e 04 42 93 3e 69 f5 2a 3d 2a 23 e0 3c
       0.26079753 0.28761303 0.041737948 0.027360518
000180 d6 b0 6f 3e 55 9d f0 3d 72 1a b1 3e 41 b0 61 3e
       0.23407301 0.11748759 0.3459049 0.22039892
000190 38 12 76 3e 42 79 96 bd 20 00 37 3e 3a 3f 6a 3c
       0.24030387 -0.07347347 0.17871141 0.014297301
0001a0 24 96 23 3e 0a 34 bd 3e 05 31 49 be 50 05 63 bd
       0.15975243 0.36953765 -0.19647606 -0.05542499
0001b0 31 53 8b be 8f f4 5c 3d 19 21 7d 3e 0a 2b 6a be
       -0.27211908 0.053944167 0.24719657 -0.2286798
0001c0 2f 61 5f 3e f2 56 0a be fc 0f ba 3e 76 a3 9c 3e
       0.21814416 -0.1350973 0.3634032 0.3059346
0001d0 7a cc ff bb 8c 75 43 bb 10 0c 7a bb c2 09 4e be
       -0.007806358 -0.0029824702 -0.0038154162 -0.2012091
0001e0 1f 11 97 3c d1 6b 0f be a1 11 f6 bd da 6d db bc
       0.018440781 -0.14005972 -0.12015081 -0.02678578
0001f0 2a 93 82 3e 69 01 6d be 31 ab 8d 3e b3 9d 44 bd
       0.25502902 -0.23145069 0.2766967 -0.048001956
000200 70 ed c7 3c 00 84 8e 3d 5b 0c 57 be 9f 58 30 be
       0.024405211 0.06958771 -0.21000807 -0.17221306
000210 f3 c1 49 3c c7 15 01 3e 04 b0 d1 bb 7a e5 26 be
       0.0123143075 0.12605964 -0.0063991565 -0.16298476
000220 9b 9c 24 3e 96 eb 76 3e 33 76 d6 bd 68 84 ac be
       0.16075365 0.24113306 -0.104717635 -0.33694768
000230 1c 81 7f 3e 73 21 40 3e c7 21 c1 3d 59 99 8e 3e
       0.24951595 0.1876276 0.09430271 0.2785137
000240 c1 79 ff bd fd 83 99 be dc 63 53 be 19 92 b9 bd
       -0.124743946 -0.29983512 -0.20643562 -0.09061069
000250 d2 c8 43 3d 08 19 8d be 7d 82 34 3e c1 62 87 be
       0.04779894 -0.2755816 0.17627902 -0.2644253
000260 ac b5 20 be 84 1d 01 be 0f 3a 99 be 91 e1 60 3e
       -0.15694302 -0.12608916 -0.29927108 0.21961047
000270 ce 5b a7 be 6d 90 02 be ac 68 24 be 32 09 a3 bd
       -0.3268723 -0.12750407 -0.16055554 -0.07960738
000280 b8 75 6a 3d 9c 54 98 3e 7b 75 4a 3c b4 b4 f2 3d
       0.05724117 0.29752052 0.012357111 0.11850873
000290 be 05 b0 3e dd d8 8f bd ee b9 39 be 90 2a 65 3b
       0.3437938 -0.07023785 -0.18137333 0.0034967996
0002a0 be d0 35 bd 24 be de 3d c4 13 ba 3d 52 ab 8f bc
       -0.044388525 0.1087611 0.09085801 -0.017537747
0002b0 a3 64 2c be ad 30 0d be 6b 19 a5 3e ef f1 a5 bd
       -0.16835265 -0.137881 0.32245955 -0.08102786
0002c0 27 d2 a4 3e 75 b1 8d 3e 11 04 5c bd 93 c4 6e be
       0.32191584 0.2767445 -0.053714816 -0.23317175
0002d0 ed 69 38 be 35 98 1e 3e c0 2f 04 bc b3 99 15 3e
       -0.18009157 0.1548775 -0.008068025 0.14609413
0002e0 35 a2 8a be c8 75 81 be 8a 7b 4c be ee 7d 64 3e
       -0.2707688 -0.25285172 -0.19969001 0.22313663
0002f0 86 35 0b be df 64 ee 3d ef 89 39 3e 00 a4 83 bd
       -0.13594636 0.116403334 0.18119024 -0.06427765
000300 2b 3e 6d be 04 1f 46 3e 04 85 17 be 6d 08 cf bd
       -0.23168246 0.19347769 -0.14796835 -0.10109029
000310 8f 1b a3 be 71 32 60 be d6 5c 66 3e dc 66 d2 bd
       -0.31856963 -0.21894242 0.22496352 -0.10273525
000320 9b ec d0 bd 22 ba 4e 3e 62 e0 63 3e a6 87 b7 be
       -0.10201379 0.20188192 0.22253564 -0.3584568
000330 c8 11 e1 be de 48 8f 3e c2 04 da bc 6e b8 89 3e
       -0.4395888 0.2798528 -0.026613597 0.2689852
000340 8b c1 dd bd 29 9b 0b 3e c0 16 0d be f8 8c 91 3e
       -0.10827931 0.13633408 -0.1377821 0.28427863
000350 38 42 7e 3d 24 59 c6 be b2 11 8f be 4a 08 30 3e
       0.06207487 -0.38739884 -0.27943188 0.17190662
000360 41 47 26 3e 61 59 0e be a8 b2 bb bc f8 a3 a1 3e
       0.16238119 -0.13901283 -0.022912338 0.3157041
000370 cd 34 0f 3d 2d 7e f6 3d 32 6d 5f 3e 15 7b 15 3c
       0.034962464 0.12035785 0.21818998 0.009123583
000380 6c e1 d7 bc fd 47 26 bd 20 84 b2 3e 4a 00 9e be
       -0.026352607 -0.040595997 0.34866428 -0.30859596
000390 bb 54 80 bd b2 6f bf 3c 72 b0 96 be 0d 98 62 be
       -0.06266161 0.02336869 -0.29431492 -0.22128315
0003a0 ad 76 2e be 96 d7 a3 bd b4 fc 11 3e 19 79 22 3e
       -0.17037459 -0.08000104 0.14256555 0.15866508
0003b0 da 9f 58 3e c9 9b 6b be 42 1b 51 3d b9 e8 45 3d
       0.21154729 -0.23008646 0.051051386 0.048317645
0003c0 3b ca 80 be a7 9e a1 3e 90 43 97 3d 9b cd 21 3e
       -0.2515429 0.31566355 0.073859334 0.15801089
0003d0 48 d1 87 3e e5 eb ab 3e 91 1c 50 3e b0 b6 20 be
       0.26526856 0.3357841 0.20323397 -0.1569469
0003e0 31 e9 09 3e b9 6e 8f be a2 7d 8b be eb 0a 31 be
       0.13467862 -0.28014162 -0.27244288 -0.17289321
0003f0 54 6f 72 bd 82 fc ad 3e b0 2a 48 3e fd 26 06 be
       -0.059188202 0.3398171 0.19547534 -0.1310081

encoder.convs.1.nn.0.bias f4 [32]
000000 37 9c ac bd b2 fa 99 3d 3a 7d 33 3d c6 37 5b 3d
       -0.08428233 0.075185195 0.043820597 0.053519987
000010 59 2a 77 bd 1c a1 83 3d 49 89 bb 3d a9 5c 4b bd
       -0.06034312 0.064272135 0.091570444 -0.049648914
000020 a7 b0 88 3d d6 7f cb 3c 57 ff d8 3c f4 26 b4 bd
       0.06674319 0.02484123 0.026488943 -0.08796492
000030 51 5f af 3d 0a d8 ba 3c 01 9b 0b 3e 66 b0 27 be
       0.08563102 0.022808094 0.13633348 -0.16375884
000040 cc 53 96 3d 93 cb de 3b 8d 0a 5d bd 87 ce 62 bc
       0.07340202 0.0067991703 -0.05396514 -0.013843185
000050 25 9d 5c bd 43 0a 0a 3d a8 de 15 3d 1d d4 13 3c
       -0.053860802 0.033701193 0.036589295 0.00902274
000060 5b 3e e3 bd e5 9e 1c 3d d5 25 0c bd 5a 93 e4 bd
       -0.11095878 0.03823747 -0.034215767 -0.111609176
000070 c4 2f 3f 3c d3 d5 14 bd 1e cf 01 3d bf 68 82 bd
       0.011669103 -0.03633673 0.031691663 -0.06367635

encoder.convs.1.nn.2.weight f4 [32, 32]
000000 20 30 83 3e 2d 1d 4c 3e 8c a3 a9 bd 91 64 94 be
       0.25622654 0.19933005 -0.08283147 -0.28982976
000010 0c d4 a1 3e 4f 98 ab bd f2 05 84 3e e1 14 3f 3d
       0.3160709 -0.0837866 0.25785786 0.04665077
000020 27 df 07 be 5f 78 1d 3e 1c 8f 49 3e d3 c2 80 be
       -0.1326872 0.15377949 0.19683498 -0.2514864
000030 64 6a 48 3e 02 0c 4f 3e e9 72 41 3e 53 ec b0 bd
       0.19571835 0.20219424 0.18891491 -0.08638825
000040 e6 a3 0d bd 09 75 22 be b8 b9 c8 bd 2c 8f 39 be
       -0.034580134 -0.15864958 -0.09801048 -0.18121022
000050 43 c6 b1 bb e1 c7 dc 3e b7 b8 09 3d 54 c8 d2 3e
       -0.005425246 0.43121246 0.033623423 0.41168463
000060 df c7 df bd ad 09 ae 3d bf 81 a0 3c a5 e5 5d be
       -0.10926794 0.08497939 0.019593118 -0.21669634
000070 a1 2c a1 3d 9e 26 82 bc 1c 53 e4 bd 71 c4 1b be
       0.078698404 -0.015887555 -0.11148664 -0.15211655
000080 5a 08 45 3e 74 61 af be 87 87 b8 3d c3 28 06 3e
       0.19241467 -0.34254038 0.09010225 0.13101487
000090 ff 99 2b be 75 f0 40 3d 86 e5 4e be 6e 82 b7 be
       -0.16757964 0.047104318 -0.20204744 -0.35841697
0000a0 14 f5 14 3d 5d 51 5a be d7 f6 90 3e b2 3b 94 3d
       0.036366537 -0.213201 0.28313324 0.072379485
0000b0 70 67 02 be fa 2e fa bc 60 75 65 be cc 38 cd bd
       -0.12734771 -0.030539978 -0.22408056 -0.10020599
0000c0 a2 66 46 bd 9d 42 fc bd a8 15 1c be 37 41 6d 3c
       -0.048437722 -0.12317393 -0.15242636 0.01448088
0000d0 28 07 2c bd a2 91 6d 3e a0 4b 3d be 8a 0e 60 bd
       -0.041999012 0.23200086 -0.1848588 -0.054701366
0000e0 27 58 a1 bd ec 77 ec bd 3d 5d cf be d6 23 28 be
       -0.07878142 -0.11546311 -0.40500823 -0.1641992
0000f0 dd b7 90 3d 91 b0 f4 3d e9 e5 05 be 32 f5 d4 bb
       0.07066319 0.1194774 -0.13075985 -0.006498956
000100 3e 3b 46 3e 4f f1 9c bd a8 c3 a0 bd ab 0b c3 bd
       0.19358537 -0.076632135 -0.078498185 -0.0952371
000110 9a 3d ed bd 05 17 07 be 08 d3 9a 3c 57 a9 86 3c
       -0.11584015 -0.13192375 0.018899456 0.01643817
000120 76 c4 65 be 66 50 7c 3e 88 d0 ac 3e 6d 86 85 3e
       -0.22438225 0.24640045 0.33752847 0.2607912
000130 f0 e9 c9 bc b4 21 47 3e 10 61 90 be de 7f 49 3e
       -0.024647683 0.1944645 -0.28199053 0.19677684
000140 b7 ea b3 be 5d 36 19 be 1e 26 ba bd c3 67 2f 3e
       -0.3514001 -0.14962144 -0.090893015 0.17129426
000150 f3 c9 ab 3d e9 25 d6 3d a3 b3 c6 3d c7 a2 f4 3d
       0.08388128 0.104564495 0.09702232 0.1194511
000160 12 11 31 bd 1a 48 85 be e1 f1 5f 3e 09 86 72 be
       -0.04322917 -0.26031572 0.21869613 -0.23683943
000170 81 74 85 bd 48 5c 69 be 22 b5 3f be 7f f6 87 be
       -0.06516362 -0.22789109 -0.1872144 -0.2655525
000180 f4 49 68 3e ff 85 7a be 86 5a 45 3e fc 8f 85 be
       0.22684461 -0.24465178 0.19272813 -0.26086414
000190 b8 08 6d be b0 95 67 3e 74 e7 01 be 7f 82 e7 bd
       -0.23147857 0.22615695 -0.12685949 -0.11304187
0001a0 c6 9e da bd d8 5e 7b be d3 48 7b 3c cd 73 e6 bd
       -0.10674815 -0.24547899 0.015337187 -0.11252556
0001b0 c5 11 07 3e 8f d7 66 3e c3 f1 23 be fa e3 67 3e
       0.13190372 0.22543167 -0.16010194 0.2264556
0001c0 48 ec 84 bc da fc ec 3c d2 39 a9 be d9 5c 0e 3d
       -0.016225949 0.028929163 -0.33051926 0.034756515
0001d0 46 45 68 3d 4f 41 1f be 03 82 ae bd 52 10 0e be
       0.05670669 -0.15552257 -0.085208915 -0.13873413
0001e0 9a 3e 1f be d2 69 8d bd 0f 1e dc bc 2c 7a 8c be
       -0.15551224 -0.06904949 -0.026869802 -0.2743696
0001f0 6b 02 96 be ad 77 30 be 84 a4 9a be c4 4c 94 b9
       -0.2929872 -0.17233153 -0.3020364 -0.00028285955
000200 7b 0e 1c be 98 ad 0f 3e 03 c3 3a be 47 24 27 be
       -0.15239899 0.14031065 -0.18238454 -0.16322432
000210 d3 69 62 3e 10 6e a8 bd 4d 6e 78 3e f8 f8 7a be
       0.22110681 -0.08224118 0.24260826 -0.24509037
000220 21 aa c1 be a5 5b 11 3d cc ef 1e bd 45 e0 9b be
       -0.3782511 0.03548779 -0.038802907 -0.30444542
000230 42 4a 8c be 0d c1 89 bd eb 1e 2b 3e ad 01 69 bb
       -0.27400404 -0.06726275 0.16711013 -0.0035553977
000240 94 20 8d be 07 6b 80 3e fa 04 fc bd 5a dd d7 bd
       -0.27563918 0.25081655 -0.12305637 -0.10540266
000250 8a d3 4c be 51 15 93 bb 70 58 63 bc 8b 99 a1 be
       -0.20002571 -0.004488625 -0.013876066 -0.31562456
000260 64 79 50 bd 78 50 36 3e 71 09 19 be 3b 0d d7 bc
       -0.050897017 0.17804134 -0.14945008 -0.026251426
000270 90 d2 91 3e 85 67 93 be 29 06 96 be 7e dd 78 be
       0.2848096 -0.28789917 -0.29301575 -0.24303243
000280 b1 57 d3 3d 99 8e 47 3d 94 0b f7 3c fd d4 94 be
       0.1031946 0.048719976 0.030156888 -0.29068747
000290 ac 3e 59 3e 95 8a f5 bd f0 b1 12 3d 4a cb bf 3c
       0.21215314 -0.11989323 0.035814226 0.023412365
0002a0 0c 10 6e be 22 a7 5e 3e 9b 36 35 3e 89 9f 61 3e
       -0.23248309 0.21743444 0.17696612 0.22033514
0002b0 b8 de 8d be c2 7d 8e 3e 69 44 2b 3d b3 c8 3c be
       -0.27708983 0.2783032 0.041813288 -0.18435936
0002c0 98 f0 7f 3e 11 d9 ab 3e e2 65 0d be c4 60 54 be
       0.24994123 0.33564046 -0.13808396 -0.20740038
0002d0 c1 7b 65 bc 2d e7 37 3e ac 4f e6 3e 92 30 7e 3e
       -0.014006556 0.1795928 0.4498266 0.24823216
0002e0 87 1e b1 3e 29 e0 a8 3d 9d 4a 68 3e 97 91 73 be
       0.34593603 0.0824588 0.22684713 -0.23786007
0002f0 05 fa 6b bd 1a 25 08 3e 3e 4b 98 3d 9e 92 94 be
       -0.057611484 0.13295403 0.07436226 -0.2901811
000300 84 01 49 be 72 38 68 3e ff 85 91 3e 2d 03 1a be
       -0.19629484 0.22677782 0.28422543 -0.15040274
000310 39 08 ce bd f6 8f cc be fa 3b eb bd 6a 8d 28 be
       -0.10060162 -0.39953583 -0.11486049 -0.16460195
000320 be f5 37 be 25 f3 8d bc 14 73 63 3e 7f f8 71 3d
       -0.17964837 -0.017327854 0.22211868 0.059074875
000330 9d 5d b4 3d bd c3 7d 3c a7 d9 69 3d 66 2b 47 3e
       0.08806918 0.015488562 0.057092335 0.19450149
000340 8a 8e 93 3e f4 f9 08 3e 84 3c 3a 3e 97 bf a2 bc
       0.28819686 0.133766 0.18187147 -0.019866748
000350 ee 65 95 3e ef ae 72 3e 9f f7 77 3e 1d d7 e4 bd
       0.2917933 0.23699544 0.24215554 -0.11173842
000360 2e 0f 13 bd 9a 31 78 bd ec 69 37 bc ce 13 21 3c
       -0.03590315 -0.06059418 -0.011194687 0.009831382
000370 ec 94 93 3e 0e 11 98 3e 10 11 1b be b2 06 b5 3e
       0.28824556 0.29700512 -0.15143228 0.3535667
000380 bc f3 1f be ed ac 7b be bb ee 7b 3e 49 6c 5d bc
       -0.15620321 -0.24577685 0.24602787 -0.013514587
000390 e7 fb 8a 3e 07 bd b6 bd d0 b4 9b be 7a 19 07 3c
       0.2714531 -0.08922773 -0.30411386 0.00824582
0003a0 7d 26 01 be d0 04 00 3e f5 87 a8 3b db b1 a7 3e
       -0.12612338 0.12501836 0.0051431605 0.3275288
0003b0 4e 75 60 be 9d 37 34 3e 82 69 74 be 0a 28 9c bc
       -0.21919748 0.1759934 -0.23868373 -0.01906206
0003c0 a5 5c 86 be 20 6c 31 bb fc f3 7d 3d cd d1 31 3e
       -0.26242557 -0.0027072504 0.06200026 0.17365189
0003d0 61 de be bd f7 ca 29 3e 29 45 83 3e 2b cf 4e 3d
       -0.09319759 0.16581331 0.25638703 0.05049054
0003e0 de c6 1d 3e 11 fb 5a 3d 12 4c f0 bd 52 66 38 3e
       0.15407893 0.05346209 -0.11733259 0.18007782
0003f0 23 77 d3 bd 69 7d de bd c6 6f 7c 3e f7 96 76 be
       -0.10325458 -0.10863764 0.24652013 -0.24081026

encoder.convs.1.nn.2.bias f4 [32]
000000 7c 98 a0 3d b2 d0 2d bd fa 18 56 bd b4 c3 c9 bc
       0.07841584 -0.042435355 -0.052269913 -0.024629451
000010 b5 64 04 3d 5b 6a 28 3e 23 8a 21 3d ae 37 1f 3d
       0.032322604 0.16446821 0.039438378 0.03887146
000020 fb 83 bd bc 8f a4 6d 3d c4 10 81 bd e0 91 5e bd
       -0.023134222 0.058018263 -0.06302026 -0.054338336
000030 cb 00 41 bb 26 51 e4 bc a7 e5 d0 3b 22 d5 e5 bc
       -0.0029449936 -0.027870726 0.006375033 -0.028055731
000040 54 f2 58 bd 25 3c 03 3e 3b f2 ce bd 92 71 a2 3d
       -0.052965477 0.12815912 -0.101047955 0.07931818
000050 e6 f1 10 3b 2c 80 08 3d 09 5c f7 3d 96 f1 42 3d
       0.002211684 0.03332536 0.12078101 0.047593676
000060 ec 45 1f 3e 25 d6 ee bd 40 05 9f bd ee e3 da 3c
       0.15554017 -0.116619386 -0.07764673 0.026720013
000070 c9 3d 7d 3d 58 8a 5d bd 72 76 a5 3d d0 ce 93 bd
       0.0618265 -0.054087013 0.08079232 -0.07217181

encoder.convs.2.nn.0.weight f4 [32, 32]
000000 6b 1e 7e be 47 f3 aa 3e cb 57 3c 3e d9 31 6a 3c
       -0.24816291 0.3338873 0.18392865 0.014294111
000010 ca 40 cb 3c 65 f0 ad be 7c d5 25 3e 0a f6 14 be
       0.024811167 -0.3397247 0.16194719 -0.14546981
000020 7e 00 b5 be 83 97 31 3d b1 cc 30 3d 9c 41 8d 3d
       -0.35351938 0.043357383 0.04316396 0.068972796
000030 86 17 04 3e a2 98 03 be 71 f9 ac 3d a4 19 8a bd
       0.12899598 -0.12851194 0.08446015 -0.06743172
000040 83 39 8b be 47 ea 7a 3c e7 5a 87 3d ff c1 05 3e
       -0.27192315 0.015314645 0.06609135 0.13062285
000050 93 aa 23 3e 74 e2 a8 bd 4a b2 9d be 15 c5 16 be
       0.15983038 -0.082463175 -0.30800086 -0.14723618
000060 fe d1 9d be df f8 bd 3d d9 0d 68 be bf 5d c2 bc
       -0.30824274 0.09275984 -0.22661532 -0.023726342
000070 4a 7d 8a 3e fb 09 6a 3e fc 45 4b be 5d 89 6f bd
       0.27048713 0.2285537 -0.19850916 -0.05848061
000080 25 df c2 bc 62 fa a8 3d 23 e0 f8 39 c0 69 93 bd
       -0.023788044 0.08250882 0.0004746924 -0.071979046
000090 cf 0e 2c be b6 e0 2d be 85 66 35 be 4d 15 10 3c
       -0.16802524 -0.16980252 -0.1771489 0.008794141
0000a0 0a 92 d7 3c b7 1b 60 3e 97 69 81 bb aa cf ae be
       0.026314754 0.21885572 -0.003949355 -0.3414281
0000b0 fc 82 38 be 5f ff 41 3e 4b 46 08 3d 62 68 b3 3c
       -0.18018717 0.18945073 0.03327016 0.02190036
0000c0 14 e5 a5 3d 08 3e 3f 3e f6 bb 40 bd 7c ee 2f 3e
       0.08100334 0.18676007 -0.047054254 0.17180818
0000d0 88 4e 0c be 35 48 84 3e c6 47 ac bc 92 94 cf 3d
       -0.13701832 0.2583634 -0.021030318 0.101357594
0000e0 96 50 18 be 3c 77 92 3e 7a 9f 35 be a0 b7 84 3e
       -0.14874491 0.28606594 -0.17736617 0.25921345
0000f0 4a 41 63 bd 83 aa 26 bd 02 7c d9 39 f4 cb eb 3d
       -0.055482186 -0.040689956 0.00041481858 0.1151351
000100 22 cc 2b be e5 e4 19 3e 53 8d 4b 3e d8 35 8e bd
       -0.16777089 0.15028723 0.1987813 -0.06943864
000110 4f a6 26 3e 3b 63 e2 3d 52 0f 86 3e a1 31 c7 be
       0.16274379 0.11054083 0.26183563 -0.3890505
000120 47 7c 20 be 86 ec 13 be 90 71 83 be 99 d5 ba bd
       -0.15672408 -0.14445695 -0.2567258 -0.09122772
000130 2c d6 c5 3e ea fd 86 bd ff 9d 1a be ed 4d 96 bd
       0.38639963 -0.06591399 -0.15099333 -0.07339082
000140 f8 04 ab 3d af 08 87 be 2d 8f 92 3d 02 42 47 3e
       0.08350557 -0.26373813 0.07156215 0.19458774
000150 dd 2b 60 be 5e 99 a3 bc ae b6 8d 3d 0c 4a a0 ba
       -0.21891733 -0.019970592 0.06919609 -0.0012229099
000160 68 2d 42 be b3 35 ab be 4d 26 5d be 9e ea 77 3e
       -0.18962634 -0.33439407 -0.21596642 0.24210593
000170 a8 64 92 be 9d b1 ad 3c e5 e2 22 be e1 1b 27 3e
       -0.2859242 0.021202857 -0.15906866 0.16319229
000180 c0 61 13 3c 9a 71 c6 3d b0 a7 ec bd 47 08 a0 be
       0.008995473 0.096896365 -0.11555421 -0.31256315
000190 c8 56 b6 be 20 71 fb bd 2d ca 8e 3e 45 20 83 be
       -0.35613084 -0.12277436 0.27888623 -0.25610557
0001a0 bb 1f ad 3e 86 f7 42 be 9d a0 8b 3e 09 21 e1 bd
       0.3381327 -0.19039735 0.27270976 -0.10992629
0001b0 46 44 23 3e b4 66 ec bd df 95 6c be 57 ad 6d 3d
       0.15944013 -0.115430266 -0.23104046 0.058026638
0001c0 44 5f 8b be ee 12 ad bd f4 00 24 3e b7 4e 87 bd
       -0.2722112 -0.08450876 0.16015989 -0.066068105
0001d0 00 4e 21 3e e8 c6 8c be fc 66 d1 bd 89 35 1e bb
       0.15752411 -0.27495503 -0.10224721 -0.0024140796
0001e0 88 d8 fe bd f8 57 94 bd cf 48 c5 3c 70 5c 44 3d
       -0.12443644 -0.07243341 0.02408257 0.047939718
0001f0 28 3b 11 3e 21 50 33 be 6a 9c b2 bd 0c fe e6 3d
       0.14182723 -0.17511036 -0.0872124 0.11278924
000200 3c 52 c1 3c a1 ab 34 be 36 0b 76 bd 95 b3 ab 3d
       0.023598783 -0.17643596 -0.060069285 0.08383862
000210 46 5b 25 be d8 15 6a 3d bc f5 1e 3d b2 3e 5f be
       -0.161481 0.057149738 0.03880857 -0.2180126
000220 e2 a1 cf 3c fe 79 0c be 54 f6 9b be 6a 9c 77 3e
       0.025345746 -0.13718411 -0.3046137 0.24180761
000230 d6 c5 62 3c c9 52 8b be d7 d0 be 3d 50 11 66 3e
       0.013841113 -0.27211598 0.09317177 0.22467542
000240 08 1e 01 3d 05 89 7d 3d 33 46 c1 3c 4e d7 c4 be
       0.03152278 0.06189825 0.023593044 -0.38445514
000250 8b e3 34 3e aa 1e 3c 3e e7 3b ff bd 6e cd 1a be
       0.17664926 0.18371072 -0.12462597 -0.15117428
000260 66 d8 89 3e 65 0a 24 3e c0 62 a6 3d dc 00 e8 3d
       0.2692291 0.1601959 0.08124304 0.11328289
000270 a2 9e 88 be dd d5 6d 3e bc a8 68 3e 6c c3 f9 3c
       -0.26683527 0.23226114 0.22720617 0.030488692
000280 3a 21 6e bd 12 34 6f 3d 41 cd c4 3d 72 d9 fa bd
       -0.058137156 0.058399267 0.096094616 -0.12248506
000290 31 75 e9 3c ac ae d8 3d 74 1b 8d 3e c1 70 bb be
       0.028498264 0.10580191 0.27560008 -0.36609462
0002a0 be 50 9d 3e 21 ef 11 bd 61 fa 02 be 1f fb 55 bd
       0.30725664 -0.03562844 -0.12790824 -0.05224144
0002b0 4c 6f 5f be ab aa 8f 3e 9d 28 91 be 67 1b 2b 3e
       -0.218198 0.28059897 -0.28351298 0.16709672
0002c0 0b cb b6 3c 1a 61 7e 3d 53 7a 48 be 41 e4 31 be
       0.022313615 0.062104322 -0.19577913 -0.17372228
0002d0 5e 09 29 be 9c c8 0a bc b0 e6 b8 bc 4d d2 db 3d
       -0.1650748 -0.008470681 -0.022570938 0.10733471
0002e0 26 ed b1 be 2a 35 36 be c3 d0 af be 2c b2 5e 3e
       -0.34751242 -0.17793718 -0.3433896 0.21747655
0002f0 78 3f a6 3d cf 24 aa bd 9b 46 43 be 14 85 13 be
       0.081175745 -0.08307802 -0.19069903 -0.14406234
000300 cc 66 8e 3e 63 5a 3a 3e 80 99 8b 3e 06 4b 85 be
       0.27812803 0.18198542 0.2726555 -0.260338
000310 31 a0 71 3e ba 47 4b 3e 39 9d 2f 3e 5e 30 4f bd
       0.23596264 0.1985158 0.1714982 -0.050583236
000320 fd aa 54 bd a9 fe 63 be 40 ba a8 be 7d a1 9b 3e
       -0.05192088 -0.22265114 -0.32954597 0.30396643
000330 df ba d9 3d 14 eb 23 3e 93 a5 2a 3e ba 69 9d 3e
       0.10631346 0.16007644 0.16664724 0.30744725
000340 1e 75 15 3d b1 2d c1 3d 39 cd 3e bd 2f a5 8a bd
       0.036488645 0.09432543 -0.046582434 -0.067697875
000350 26 74 2c 3c b6 8f 33 be dc 3b cc 3e 03 b4 86 3d
       0.010525739 -0.1753529 0.3988942 0.06577303
000360 50 dc ab 3e 58 43 91 3d 8c 5e 47 3e 34 3a 69 be
       0.33566523 0.07092923 0.1946966 -0.22776109
000370 e2 5b 58 be 78 f6 6d 3e a5 76 2e 3e 09 b4 ca bd
       -0.211288 0.23238552 0.17037447 -0.0989762
000380 7c e4 6f be 02 7a 99 be 35 cd 36 3e d8 98 5b 3d
       -0.23427004 -0.29975897 0.17851718 0.05361256
000390 1f ee 49 3e 4a be bf be 3b ec 9d bd 0e fd 96 be
       0.19719742 -0.37449867 -0.07711073 -0.2948994
0003a0 b5 78 fd 3d 94 26 28 be 96 61 6e bd 85 65 3b 3c
       0.12376539 -0.16420966 -0.058198534 0.011437778
0003b0 db 0f 1d 3d ff 94 8b bd 1d 10 98 be 75 b6 a6 be
       0.0383452 -0.06815528 -0.29699793 -0.3256108
0003c0 6c d5 29 3e 97 b9 68 3d bb 39 b0 bd 22 3d 3e 3e
       0.1658532 0.056817617 -0.08604761 0.18578008
0003d0 6d 3a 8a be 7b 25 7e bd 03 e4 8b 3e 9d c8 b8 bd
       -0.269977 -0.062047463 0.27322397 -0.09022639
0003e0 4d c4 c6 3d e0 42 27 be 6a fc 45 3c 04 5f 1a be
       0.0970541 -0.16334105 0.012084106 -0.15075308
0003f0 b7 6f 2e be 6e 73 b2 be 7d f0 0e 3e 44 15 66 be
       -0.17034803 -0.3485369 0.13958926 -0.2246905

encoder.convs.2.nn.0.bias f4 [32]
000000 cb 57 25 3d 11 40 15 be 01 87 3a ba 44 b4 23 3c
       0.04036693 -0.1457522 -0.0007115454 0.009991709
000010 26 00 f0 bd e3 e3 8f 3d 17 cb a2 ba 44 44 b1 3d
       -0.11718778 0.07025888 -0.0012420145 0.08655599
000020 be c8 01 3d 47 46 96 3d dd 2d 0c 3d ec 69 e0 bd
       0.031685583 0.07337623 0.034223426 -0.10957703
000030 b9 92 66 bd 21 dd 9f bc 8c 88 af 3d ec 0d 03 3e
       -0.05629227 -0.019514622 0.08570966 0.1279828
000040 1f a8 e3 bc 6c 4d 8e 3c bb f5 8b 3d 0b 87 e1 bd
       -0.027790127 0.017370902 0.06833979 -0.110120855
000050 76 ad f0 bc 44 30 d9 bd 4f 04 2c bc 3f 67 08 be
       -0.029379588 -0.10604909 -0.010499074 -0.13320635
000060 5a 8e 0f bb 04 f7 0c bd 31 a1 06 3e 94 5d 53 bd
       -0.0021904917 -0.03441526 0.13147427 -0.051602915
000070 61 70 e0 ba 6b 30 e6 3b 77 20 74 3d 30 e7 f7 3d
       -0.0017123335 0.007024815 0.059601273 0.121046424

encoder.convs.2.nn.2.weight f4 [32, 32]
000000 e6 0c ab 3e d1 f6 7f be 4a 64 bf be ac 76 14 3e
       0.33408278 -0.24996497 -0.37381202 0.14498395
000010 40 df 4b be f2 98 22 3e ac a4 ea 3d f0 ca 8c 3e
       -0.19909382 0.15878657 0.1145719 0.2749858
000020 54 8e e3 bd a3 61 9c 3e 93 da c2 3d ed f0 82 be
       -0.11111131 0.3054324 0.09514346 -0.25574437
000030 12 f9 42 be 6a 81 c0 be 42 b9 03 3e 75 ac 27 be
       -0.19040325 -0.37598735 0.12863639 -0.16374381
000040 3d 75 0a be 3b 3d fc bd 00 09 cf 3d b2 5a b2 be
       -0.13521285 -0.12316366 0.101091385 -0.3483482
000050 0c bb 61 be 69 8f 69 be 2f cd f8 bd a2 8b 37 be
       -0.22044009 -0.22808613 -0.12148511 -0.1792436
000060 1a be e5 3d 7e d5 bb bd 16 c4 34 bd c1 08 12 3b
       0.112178996 -0.0917158 -0.044132315 0.002228305
000070 cb d6 0e be 11 19 54 3e 3d b5 28 be d7 21 60 be
       -0.13949125 0.20712687 -0.16475387 -0.21887909
000080 c0 2c a1 bd 38 dc 64 3d 45 d7 19 be db 24 39 3e
       -0.078698635 0.05587408 -0.15023525 0.18080465
000090 81 36 17 be 86 3f 26 be e9 ef 12 3d 11 d4 98 3e
       -0.14766885 -0.1623517 0.035873327 0.29849294
0000a0 4a d5 23 be 45 49 e8 bc 59 d1 eb 3d 2a d9 ed 3e
       -0.15999332 -0.02835525 0.11514539 0.46454746
0000b0 8b 1d 80 3e 10 59 70 3e 01 2c 82 be f0 3a 1a 3e
       0.2502254 0.23471475 -0.25424197 0.15061545
0000c0 18 8b 52 bc ce 85 d8 3e 7a ba d3 3e 56 00 03 3d
       -0.012850545 0.42289585 0.41353208 0.031982742
0000d0 3e d4 8c bd 04 f0 84 3e ef 18 f1 bd 82 70 74 be
       -0.068764195 0.25964367 -0.11772334 -0.23871043
0000e0 1c 1b 04 3e 63 a5 47 3e 25 06 10 bd a5 93 ec bc
       0.12900966 0.19496684 -0.03516211 -0.028878996
0000f0 e4 18 1e 3e 78 e3 45 be 87 64 e6 3b cc ba 72 bd
       0.15439183 -0.19325054 0.0070310268 -0.059260175
000100 14 78 59 bc ef df 14 3d b1 1a d4 3d 8f f0 6a bd
       -0.013273258 0.036346372 0.103566535 -0.05735832
000110 3c 6e 31 3e ad 34 06 be 76 f4 46 be 50 b3 ad be
       0.17327207 -0.13106032 -0.19429192 -0.33925867
000120 11 71 9b bd 7b 73 5d be dc df 81 3e 8a c9 80 bc
       -0.07589925 -0.21626084 0.25366104 -0.015721101
000130 82 6d 60 be 95 b5 6b bd 53 f1 ae be 61 7b d2 3d
       -0.21916774 -0.057546217 -0.3416849 0.10277439
000140 2b 67 f7 3d f7 78 2a bd ab c1 a0 be 8d be 4d 3e
       0.120802246 -0.041619267 -0.31397757 0.2009222
000150 94 dc 5d be e9 a5 3d be c0 90 87 3d 39 92 95 3e
       -0.21666175 -0.18520321 0.06619406 0.29213122
000160 e1 3d 88 be cb 77 1d 3e 02 1d 1c 3e 51 9e 07 3d
       -0.2660971 0.15377729 0.1524544 0.033109967
000170 40 19 11 3e 2e bd 12 3e 29 24 f8 3d d5 66 5a 3e
       0.14169788 0.14329979 0.12116272 0.2132829
000180 87 59 55 3e 4e eb b9 bd fe f7 da 3d 79 b6 b1 3e
       0.20834933 -0.09078084 0.10691832 0.34709528
000190 df 2b 8c 3e 78 06 ee bc c3 7b 71 be 33 f9 a5 bd
       0.2737722 -0.029055819 -0.23582368 -0.081041716
0001a0 a3 36 22 3d 80 37 ed bd 9d 93 3b 3e f7 02 78 3e
       0.039602887 -0.115828514 0.18318029 0.24219881
0001b0 c3 e6 7e be a4 78 ee 3d 0f 2c fa 3c 50 c1 22 be
       -0.24892716 0.11644104 0.030538587 -0.15894055
0001c0 15 b4 4c 3d 49 ce b3 3e 59 cb b8 3e 8d bd 24 be
       0.049976427 0.3511832 0.36092642 -0.16087933
0001d0 e8 0b 1a 3e 34 9a 17 be 06 f7 54 3d 4b d7 d1 3d
       0.15043604 -0.14804918 0.051993392 0.10246142
0001e0 b5 3e a9 3d 85 db b4 3e 55 dd a6 3d b0 f6 b5 3e
       0.082639135 0.3532373 0.081476845 0.3553977
0001f0 08 e3 ef 3d e7 fd 33 3b 5a 54 6d 3e 47 42 a8 be
       0.11713225 0.002746457 0.23176709 -0.32863066
000200 cf 95 e4 3d 05 d2 92 be 6f 7b 89 3e 39 c3 4e 3e
       0.11161386 -0.28675857 0.26851985 0.20191659
000210 8d 74 34 3e 98 ef 8b 3d 28 03 1f bd a5 7d 2f bc
       0.17622586 0.06832808 -0.03882137 -0.010711108
000220 08 84 fc bd 94 4a ba 3c 07 29 ad 3e 58 d5 01 be
       -0.123298705 0.02274064 0.33820364 -0.1267904
000230 9d 4c a1 3e 1e ec 00 3d 42 77 30 3d 58 11 9e be
       0.31503764 0.03147518 0.043082483 -0.30872607
000240 e8 7b ff bd 9c bf f8 bd 4a 9d 8b 3e 6e 3b 0a 3d
       -0.12474805 -0.121459216 0.2726844 0.033748083
000250 e6 d0 6e be fa 2a 23 3c 99 a3 12 be 4e 18 5e bd
       -0.23321876 0.009958977 -0.1432022 -0.054222398
000260 76 f8 2d be 1f 43 cb bc 83 32 8e be a0 bf 24 bd
       -0.16989312 -0.02481228 -0.27772912 -0.04022181
000270 c2 3e 47 bd e7 a7 a8 3d 88 9e 4a 3e 7e 13 d7 3e
       -0.048643835 0.0823515 0.19787037 0.4200706
000280 f3 28 da be 4e 81 7f bd c5 8e 18 3e 42 5f c8 bb
       -0.42609367 -0.062379174 0.14898212 -0.0061148712
000290 10 45 89 3e 36 8e 97 3d d1 3a 81 be 5a 0a aa bd
       0.26810503 0.074001715 -0.25240186 -0.08302756
0002a0 c0 0e b3 3e f7 0b 4f 3e 7d 47 d6 bd ed 5a 7b be
       0.3497219 0.20219408 -0.10462854 -0.24546404
0002b0 f9 0b 34 3e 16 d1 e7 3d 32 ba 41 3e 0a 50 8f be
       0.17582692 0.11319177 0.18918684 -0.27990752
0002c0 c2 97 a4 be 99 15 2b be 78 19 31 be a1 8b 4f 3e
       -0.32147032 -0.16707458 -0.17294872 0.20268108
0002d0 93 ae 79 3e f7 0e 33 be e4 04 8e be 2b 15 78 bb
       0.24383001 -0.17486177 -0.27738106 -0.0037854414
0002e0 8b 18 f4 3d d1 ba e1 bd a6 ac 0a be 04 e5 25 bd
       0.11918744 -0.110219605 -0.13542423 -0.04050161
0002f0 55 85 98 be 52 cc 08 3e 92 ab 98 3e 45 62 85 3c
       -0.29789224 0.13359192 0.29818398 0.01628221
000300 f4 bf 0a be eb 02 70 3c 7c 80 a9 3e 63 7b a8 3c
       -0.13549787 0.014649133 0.33105838 0.020566648
000310 cb 2b e6 bd 65 73 65 3e e6 99 8b 3e b1 82 f3 3d
       -0.112388216 0.22407301 0.27265853 0.11890162
000320 88 a1 f0 bc 9d 11 33 be 0a 51 81 bd af f9 a4 3d
       -0.0293739 -0.17487188 -0.06314285 0.08055436
000330 70 cf 32 3e d8 ee 39 3e f4 0d cd 3d 6b d7 c5 3e
       0.17461944 0.18157518 0.10012427 0.38640913
000340 22 a7 65 be 1b 7c 06 3e 6c 47 80 bd 61 f5 b6 3d
       -0.22427037 0.1313328 -0.06263623 0.08933521
000350 13 cf b4 3e 39 f4 51 be 15 03 53 3d c2 e2 e7 bd
       0.35314235 -0.2050332 0.05151661 -0.113225475
000360 dd 13 f5 3d 96 98 1e 3e 88 14 89 be d3 80 51 3b
       0.11966679 0.15487894 -0.26773477 0.0031967654
000370 50 54 8d be 67 b4 87 3d fe 82 cc bd 2a 3a a9 bd
       -0.27603388 0.06626206 -0.09985922 -0.08263047
000380 29 b9 5b 3d c7 6c 2a be 65 f1 96 be 9a 12 72 be
       0.05364338 -0.16643058 -0.29481044 -0.23639908
000390 8b 1f e2 bc f1 6f 8c be ba 0e 10 be b0 b7 10 be
       -0.027602931 -0.27429155 -0.14068118 -0.14132571
0003a0 f8 08 8b be 03 23 44 be 1c da 9a 3e 38 c8 96 be
       -0.2715528 -0.19153981 0.3024453 -0.2944963
0003b0 0e b7 13 3e 1f ba 52 3e e0 79 06 be c8 15 1d 3e
       0.14425299 0.20578812 -0.13132429 0.1534034
0003c0 d8 42 24 3e e1 a5 25 bd b2 54 6f be 68 0d a0 3e
       0.16041124 -0.040441398 -0.23372152 0.31260228
0003d0 35 de 71 3d 51 2d 34 be 02 95 ce 3d 7e c0 41 3e
       0.059049804 -0.17595412 0.10087015 0.18921086
0003e0 9d e1 ae be 78 64 49 3e 99 34 45 3e 8f 53 9f be
       -0.34156504 0.19667232 0.19258346 -0.31118438
0003f0 46 ad 17 3e 48 c6 17 be 57 ad cb 3d 21 11 a2 3d
       0.14812192 -0.14821732 0.09945171 0.07913423

encoder.convs.2.nn.2.bias f4 [32]
000000 d7 c8 c1 bc de e4 8b 3c d8 9f 55 3c 4f 9a c1 3a
       -0.023655338 0.017076906 0.013038598 0.0014770719
000010 cd 5a 7a bd 48 04 ca 3d 38 39 3b 3c 6e 5a 62 bd
       -0.06112175 0.09864098 0.011427216 -0.05526202
000020 22 13 ef 3d 00 4b 93 bd fa e0 90 bc 6b 70 ac bd
       0.11673571 -0.071920395 -0.017685402 -0.084198795
000030 56 c4 e1 bc 7e 47 59 3d ee 5e 07 bd e4 e1 2b 3d
       -0.02755944 0.053046696 -0.033049516 0.041963473
000040 e3 d2 03 3d 22 07 cc bd d8 50 08 bd b2 76 eb bd
       0.03218354 -0.09962298 -0.033280224 -0.11497249
000050 82 b5 37 3d c0 f6 c8 bb e3 75 e0 3d 40 5a b7 3d
       0.044850834 -0.0061329305 0.10959985 0.08952761
000060 17 94 e9 3d 93 32 58 bd 27 11 b7 bd 37 fc 90 3d
       0.11405199 -0.052782606 -0.089388184 0.07079356
000070 dc b8 b0 bd ca 77 f7 3c 01 fe fc b9 1d d2 4f 3d
       -0.08629009 0.030208487 -0.00048254433 0.05073749

encoder.bns.0.weight f4 [32]
000000 3f aa 70 3f 57 31 86 3f 00 00 80 3f 00 00 80 3f
       0.94009775 1.0483807 1.0 1.0
000010 00 00 80 3f 3f aa 70 3f 3e e0 87 3f 00 00 80 3f
       1.0 0.94009775 1.0615308 1.0
000020 00 00 80 3f 3f aa 70 3f 1a 52 86 3f 45 d6 6b 3f
       1.0 0.94009775 1.0493805 0.92123824
000030 5f 02 68 3f 3b 2d 86 3f 08 5c 72 3f 00 00 80 3f
       0.9062862 1.0482553 0.9467168 1.0
000040 00 00 80 3f 00 00 80 3f db 29 78 3f 40 aa 70 3f
       1.0 1.0 0.96938866 0.9400978
000050 be f0 71 3f 00 00 80 3f 00 00 80 3f 5b f1 72 3f
       0.9450797 1.0 1.0 0.9489953
000060 3e cf 73 3f 90 0d 88 3f 86 ec 87 3f e6 97 6b 3f
       0.952381 1.0629139 1.0619056 0.92028654
000070 46 18 78 3f 00 00 80 3f cc c9 73 3f 53 43 88 3f
       0.9691204 1.0 0.9522979 1.0645546

encoder.bns.0.bias f4 [32]
000000 c5 c8 a7 bd 07 84 0d 3e bb e3 84 bd 7b 0d a0 bd
       -0.081925906 0.13819896 -0.06488749 -0.07815071
000010 03 d5 c4 bd b8 0d 43 3d 0c 36 c0 3b e2 9c fb 3d
       -0.09610941 0.047620505 0.005865818 0.122857824
000020 1a 8a 6c 3d 8d 07 09 be 5b 83 a5 3c ce 8a 1e bd
       0.05774889 -0.13381787 0.020204237 -0.038706593
000030 17 76 8d 3b 7f 39 2f 3d 79 db cc bd 69 79 90 3d
       0.004317056 0.042779442 -0.100027986 0.07054407
000040 70 56 ab bd 72 32 dc bd fd bf c7 3b 71 f5 0e bd
       -0.08366096 -0.10751809 0.006095885 -0.03490204
000050 20 c1 61 3d a4 2e 09 be f1 b2 5f bd 4b 05 f1 3d
       0.05511582 -0.13396698 -0.05461401 0.11768588
000060 9f 30 9c bd c8 6d cb 3c 47 ff 63 bc 30 70 37 3d
       -0.07626461 0.024832621 -0.013915843 0.044784725
000070 f7 01 ca bd 21 b8 9a bc 76 31 f4 bd 78 e8 2d 3d
       -0.09863656 -0.018886628 -0.119234964 0.042458028

encoder.bns.0.running_mean f4 [32]
000000 5f 0e 8c 33 8b 05 6f 3f 00 00 00 00 00 00 00 00
       6.521872e-08 0.9336783 0.0 0.0
000010 00 00 00 00 c8 64 22 33 11 35 c5 3f 00 00 00 00
       0.0 3.7810224e-08 1.540682 0.0
000020 00 00 00 00 cc 06 f0 31 fa b1 9c 3f a0 a8 31 3f
       0.0 6.985692e-09 1.2241814 0.69397926
000030 53 13 45 3f 9d 71 7f 3f 1e 80 22 3f 00 00 00 00
       0.7698261 0.99782735 0.6347674 0.0
000040 00 00 00 00 00 00 00 00 f2 f1 99 3f 7f 34 5e 33
       0.0 0.0 1.2026961 5.1736148e-08
000050 79 6d 6f 2f 00 00 00 00 00 00 00 00 19 73 fb 32
       2.1775816e-10 0.0 0.0 2.9272586e-08
000060 d5 9a 35 3f 72 9f 39 36 d5 db 09 39 d2 96 94 3f
       0.7093938 2.7659958e-06 0.00013147232 1.1608527
000070 a9 ee 04 3f 00 00 00 00 33 ce 2a 3f c2 9d 80 3f
       0.51926666 0.0 0.66720885 1.0048144

encoder.bns.0.running_var f4 [32]
000000 29 bf 58 36 7b 0a 7f 3d d7 b5 58 36 d7 b5 58 36
       3.2297778e-06 0.062265854 3.2292353e-06 3.2292353e-06
000010 d7 b5 58 36 ff b8 58 36 2f 2f 72 3e d7 b5 58 36
       3.2292353e-06 3.229419e-06 0.23650812 3.2292353e-06
000020 d7 b5 58 36 f4 b5 58 36 47 1a 24 3e bb 99 23 3d
       3.2292353e-06 3.2292419e-06 0.16025649 0.03994153
000030 d7 fd f3 3c 41 23 ef 3d b4 2c 03 3d d7 b5 58 36
       0.029784126 0.11676646 0.032025054 3.2292353e-06
000040 d7 b5 58 36 d7 b5 58 36 31 4e 2a 3e b8 bb 58 36
       3.2292353e-06 3.2292353e-06 0.1663139 3.2295775e-06
000050 d7 b5 58 36 d7 b5 58 36 d7 b5 58 36 91 b9 58 36
       3.2292353e-06 3.2292353e-06 3.2292353e-06 3.2294522e-06
000060 08 6f 14 3d a9 75 5c 36 54 8d db 36 86 3d 31 3e
       0.0362387 3.2851042e-06 6.5431614e-06 0.17308626
000070 0f ce 81 3c d7 b5 58 36 15 9b 81 3d 3b ed a4 3d
       0.015845327 3.2292353e-06 0.06328408 0.080530606

encoder.bns.1.weight f4 [32]
000000 d3 22 87 3f 3d 31 7e 3f 15 95 6d 3f 7e 65 67 3f
       1.0557503 0.9929388 0.92805606 0.9038924
000010 b4 0c 7b 3f 2f 01 87 3f 9d 59 79 3f 09 3e 8a 3f
       0.9806626 1.0547236 0.97402364 1.0800182
000020 27 31 88 3f ee d5 89 3f 12 f4 5f 3f c2 4c 6c 3f
       1.064 1.0768411 0.87481797 0.92304623
000030 6f dd 76 3f aa 5a 83 3f d6 4c 5e 3f f5 25 7f 3f
       0.9643163 1.0262043 0.8683599 0.9966729
000040 55 50 84 3f 1a 6b 7a 3f 81 c9 60 3f bc f5 7f 3f
       1.0337015 0.97819674 0.8780747 0.99984336
000050 3f c9 85 3f 32 a4 84 3f da 9c 88 3f 12 86 64 3f
       1.045204 1.0362608 1.0672867 0.89267075
000060 f2 db 81 3f 1c 62 74 3f 99 21 68 3f 28 61 71 3f
       1.0145247 0.95462203 0.90676266 0.94288874
000070 fb e6 77 3f 1e dd 6b 3f ba 63 6f 3f 65 45 63 3f
       0.96836823 0.92134273 0.93511546 0.8877776

encoder.bns.1.bias f4 [32]
000000 ab 6b 66 3d c0 12 64 3d 90 21 b1 3d 78 db 28 3a
       0.056255024 0.055681944 0.0864898 0.0006441395
000010 56 b7 92 3d 7b 85 34 bc c9 73 ce bc 3b 9d 9b bb
       0.07163875 -0.011018152 -0.025201695 -0.004748968
000020 68 f3 d1 bd db 03 1f bd 50 75 c6 3d 36 ab a2 3d
       -0.10251504 -0.038822036 0.09690344 0.07942812
000030 e7 7e 37 be 06 a6 4d 3d c5 d6 77 bd 37 9e 28 be
       -0.17919503 0.05020716 -0.060507555 -0.16466604
000040 b1 7c 85 3d 9a ed ca 3d 7a f1 86 3c 01 e2 9a 3d
       0.065179236 0.099086 0.016472567 0.07562638
000050 bd 55 13 bd e0 5e 2c be d2 1b d6 bb 42 47 11 3e
       -0.03597044 -0.16833067 -0.006534078 0.14187339
000060 67 f1 32 3b 3b c7 30 3d fe 19 ec bb 2d 78 ed 3c
       0.0027304532 0.04315875 -0.007205247 0.028987968
000070 f1 af 1a 3e 32 80 9b bd 1f e8 a1 bd 1d 57 b9 bb
       0.15106179 -0.07592811 -0.07905602 -0.0056561367

encoder.bns.1.running_mean f4 [32]
000000 51 35 f9 3e 19 13 00 37 f1 47 89 35 36 c7 37 32
       0.4867349 7.633841e-06 1.0228233e-06 1.0697297e-08
000010 c6 0d ae 3e 99 a0 3e 3f f7 90 bd 3f 23 39 cb 3d
       0.33994883 0.744638 1.4809865 0.09923007
000020 0b 97 34 32 99 70 6a 40 ed 1d 5b 3f 80 3c 37 35
       1.0511722e-08 3.6631224 0.8559254 6.826085e-07
000030 8f 6c 2e 3f 48 08 bf 3d 99 f5 a8 3f c5 ef 8f 3e
       0.681344 0.093277514 1.319995 0.28112617
000040 58 cc b2 3d e9 57 17 40 60 ef 31 3f 68 d4 5a 3f
       0.08730382 2.3647406 0.6950588 0.85480356
000050 10 49 aa 3f d7 ed 99 3d 40 b4 9e 3d de cf cc 3f
       1.3303547 0.075160675 0.07749224 1.6000936
000060 70 1a ff 3d 8e 4a ac 3f bc 11 05 40 a7 83 d2 3f
       0.124562144 1.3460252 2.0792074 1.6446427
000070 30 48 0e 40 dc 21 7a 3f b6 76 fe 3f e6 9f dd 32
       2.223156 0.97707915 1.9879978 2.58005e-08

encoder.bns.1.running_var f4 [32]
000000 3d 59 93 3e fc bb 00 37 fa 88 63 36 f9 bb 58 36
       0.2877902 7.673163e-06 3.3905367e-06 3.2295923e-06
000010 77 d3 8e 3e 83 5a 18 3f 83 8e a3 3f 63 49 2c 3d
       0.2789571 0.5951311 1.2777866 0.042062175
000020 fa bc 58 36 50 47 4f 41 ee 9b 93 3f 73 bf 67 36
       3.2296507e-06 12.95491 1.1531961 3.453312e-06
000030 a6 a3 6a 3f 0c 9c c4 3c 42 92 c9 3f 56 3e e3 3d
       0.9165596 0.02400019 1.5747759 0.11095874
000040 c2 99 16 3d 5e da da 40 a9 19 66 3f 9d 58 78 3f
       0.03676773 6.839156 0.89882904 0.97010213
000050 ad 16 fa 3f 34 9f 84 3c 3b 82 f4 3c 5e b5 e8 3e
       1.953817 0.016189195 0.029847255 0.45450872
000060 4a 90 04 3d d1 c9 49 40 d5 57 bf 40 72 94 90 3f
       0.032364167 3.152943 5.9794717 1.1295302
000070 3d 0f c2 40 bf 04 9d 3f 36 1e 82 3f 13 c6 58 36
       6.06436 1.2267073 1.016547 3.2301803e-06

encoder.bns.2.weight f4 [32]
000000 6a a0 64 3f 46 9a 88 3f 5d 11 75 3f 2e db 85 3f
       0.8930727 1.067208 0.9572962 1.0457513
000010 48 be 74 3f 55 c7 95 3f aa 27 76 3f e7 32 81 3f
       0.95602846 1.1701456 0.9615427 1.0093659
000020 b7 02 7a 3f 50 3b 7e 3f ec 95 74 3f 66 4d 88 3f
       0.9766039 0.99309254 0.9554126 1.064862
000030 2b 1d 75 3f 1c 84 75 3f 90 e8 8f 3f 5e d2 8a 3f
       0.9574763 0.9590471 1.1242847 1.0845449
000040 23 e1 72 3f 2a 46 85 3f 00 9b 90 3f 87 cd 7c 3f
       0.9487478 1.0412037 1.1297302 0.9875111
000050 38 bc 70 3f d2 b9 59 3f b4 50 5e 3f a5 49 7d 3f
       0.940372 0.85049164 0.86841893 0.989405
000060 7b 8a 66 3f 4a d5 56 3f 35 ed 68 3f bf 41 73 3f
       0.90055054 0.83919203 0.9098695 0.95022196
000070 46 0a 8a 3f a7 b1 82 3f e1 69 80 3f 97 f2 74 3f
       1.0784385 1.0210465 1.0032312 0.9568266

encoder.bns.2.bias f4 [32]
000000 e3 79 49 bd 49 ed 38 bd fc e4 93 bd fe 54 3f bd
       -0.049188506 -0.045148168 -0.0722141 -0.046711914
000010 78 3b 37 bd 74 68 d5 3c d2 84 94 3d ee 48 c6 3c
       -0.04473445 0.026050784 0.07251896 0.024204697
000020 66 19 92 3d e9 cf ea 3b d5 59 b7 bb c8 8d df 3d
       0.071337506 0.007165898 -0.0055954256 0.109157145
000030 0c 5e 82 bd 9e 4c 13 3a 65 42 a4 bd 5d 4d 38 3d
       -0.06365594 0.0005619022 -0.08020476 0.044995654
000040 96 d7 b7 3c ea d2 8d bd e6 bf c8 bb 73 38 9d bd
       0.022441667 -0.06924994 -0.0061263917 -0.076767825
000050 2c c2 b5 3c 31 05 b4 3d 43 97 23 bd 93 63 bd bc
       0.022187315 0.08790053 -0.039939176 -0.02311877
000060 e0 e9 ce 3d db b4 b5 bd 6c 1a ba bd 91 d0 ee bc
       0.10103202 -0.08872386 -0.09087071 -0.029152187
000070 6f c5 9e bd 4c f3 2a 3d d9 d2 06 3d b1 ce 99 3c
       -0.07752501 0.041735932 0.032915924 0.018775316

encoder.bns.2.running_mean f4 [32]
000000 7c e2 22 3e 12 0c 59 40 4b 09 65 3f b8 a6 7f 40
       0.1590671 3.3913617 0.89467305 3.9945507
000010 f6 50 ad 3d 76 74 ab 3d 2c 48 e1 3f c0 32 95 3f
       0.08462708 0.083718225 1.760015 1.1656113
000020 f6 62 64 3e e9 2d 80 3f c8 23 c8 3f ef e8 b0 32
       0.22303376 1.0014011 1.563592 2.0595023e-08
000030 f1 93 a4 3f 88 3b 37 3f c5 54 06 3d bd 6a a7 3d
       1.2857648 0.7157521 0.032795686 0.081746556
000040 08 59 80 3f 65 fe 0c 33 a6 3c 4a 3f 25 2e bb 3d
       1.002717 3.282766e-08 0.7899879 0.09139661
000050 d1 38 94 3e 8a 74 f6 3f 3c 5c 80 3e 15 b5 ec 3e
       0.28949597 1.9254315 0.2507037 0.46231905
000060 14 74 82 3f 12 dd c2 3f 40 69 ba 3f 3a 92 c4 3e
       1.0191674 1.5223715 1.456337 0.38392812
000070 e3 82 8f 36 0f 32 be 3e 6b 4f de 3f 9f 9d 8f 40
       4.2769693e-06 0.37147567 1.7367986 4.487991
